spectre/.config/google-chrome/optimization_guide_model_store/46/E6DC4029A1E4B4C1/C600B76DD08CE2C7/model.tflite (tflite, 76368 bytes, 9 tensors)

arith.constant f4 [448]
-0.09225572 -0.20853958 0.0077716922 -0.13773361 -0.11267136 -0.1443977 -0.12922734 -0.12158738
-0.061113097 -0.27495322 -0.20539317 -0.1381793 -0.31523198 -0.07591323 -0.082956314 -0.02592406
-0.10046571 0.033300083 -0.3317583 -0.10962464 0.016308103 -0.11451336 -0.28672838 -0.22780773
-0.18039666 -0.03575548 -0.13366756 -0.25119108 -0.064988345 -0.26595882 -0.09552281 0.009202608
-0.12228504 -0.3329295 0.05400539 0.0035831325 -0.11965532 -0.12792099 -0.117426835 -0.15283988
-0.28302392 -0.06384121 -0.061297607 0.03448585 -0.037781794 -0.12151918 0.014534126 -0.12261919
-0.044483595 -0.12981835 -0.2402527 -0.14188184 -0.030594986 -0.023015952 -0.0046087913 -0.14480291
-0.066223375 -0.13802804 -0.065922074 -0.24031278 -0.00030493282 -0.052470036 -0.09289187 -0.14605837
-0.0053904294 0.0212695 -0.013933256 -0.0051184986 -0.08856479 -0.15329516 -0.07710256 -0.04870132
-0.018533187 -0.067253515 0.0390451 -0.1679029 -0.20670906 -0.1390095 -0.072969116 -0.09976871
-0.10140519 -0.02673643 -0.2355406 -0.07797332 -0.24646395 -0.048638165 -0.07089736 -0.023202904
-0.047800373 -0.35046616 -0.054067962 -0.1459247 -0.22954015 -0.2248687 -0.117104076 0.041986555
-0.19403736 0.028397193 -0.01783629 0.026866693 -0.030834168 -0.119572684 -0.06735875 -0.2060156
0.0076113646 -0.04616819 -0.0053193583 -0.09857598 -0.15539734 -0.111118205 0.021980694 -0.10250531
-0.015951341 -0.05697916 -0.10072923 -0.22449633 -0.03930724 -0.015026186 -0.12512963 -0.03496684
-0.038265184 -0.29643232 -0.1454927 -0.04687523 -0.13451526 -0.054211546 -0.1679165 -0.08688745
-0.044742644 -0.35355377 -0.18018092 -0.05099159 -0.0666815 -0.3801818 -0.053786676 -0.07392115
-0.07829617 -0.10448324 -0.20865738 -0.050001882 -0.07110599 -0.14578709 -0.21863773 -0.26981214
-0.21262766 -0.022126092 -0.23085883 -0.097329795 -0.078442976 -0.1808747 0.03174363 -0.14670494
-0.19459608 -0.10173571 -0.0638881 -0.13714738 0.03346045 -0.033875354 -0.021429472 0.0044559147
-0.040892843 -0.17006691 -0.14686012 -0.24880278 -0.14434662 -0.09296399 -0.09334469 0.010988482
-0.08931923 -0.07391009 -0.16527563 -0.16576211 -0.03549742 -0.07329655 -0.17147774 -0.07538784
-0.031867437 -0.0378432 -0.13370429 -0.021757947 -0.14899816 -0.029859636 -0.19432363 0.008720484
-0.22314489 0.020278763 -0.1526662 -0.1512036 -0.2696528 -0.15420863 -0.16176821 -0.09289991
0.04384143 -0.06805507 -0.17227711 -0.15061328 -0.12225467 0.05959282 0.00494442 -0.072291255
-0.05733683 0.010809759 -0.001749671 -0.31650782 -0.15668695 0.027177446 -0.1674896 -0.11652465
-0.09256916 -0.047490925 -0.13934869 -0.005601184 -0.12936546 -0.32033122 -0.18422312 -0.3332835
-0.042216454 -0.18145937 -0.056295685 -0.09692395 -0.117653914 -0.17538771 -0.17495336 -0.22069705
0.022293769 -0.076721214 0.007624954 -0.106815316 -0.06876718 -0.043201026 -0.08126296 0.05632211
-0.06919333 -0.047203287 0.0848164 -0.15428722 -0.10291305 -0.14190394 -0.021463346 -0.0835545
-0.13283347 0.04966769 -0.06511315 -0.2580741 -0.10026056 -0.059175733 0.0006771291 -0.11482367
-0.18946265 -0.02800108 0.0686405 -0.084486656 -0.06684143 -0.026017325 -0.06987407 -0.044780646
00000000: 91f0 bcbd 668b 55be aea9 fe3b 0a0a 0dbe
00000010: 3ec0 e6bd fedc 13be 2c54 04be ce02 f9bd
00000020: ba51 7abd abc6 8cbe 9652 52be e07e 0dbe
00000030: 1666 a1be 6578 9bbd 00e5 a9bd b25e d4bc
00000040: f7c0 cdbd ab65 083d 39dc a9be e282 e0bd
00000050: 9298 853c fb85 eabd 10ce 92be 6e46 69be
00000060: e7b9 38be 5774 12bd 26e0 08be 1e9c 80be
00000070: 9c18 85bd c12b 88be 77a1 c3bd 89c6 163c
00000080: 9470 fabd bc75 aabe c134 5d3d fdd2 6a3b
00000090: d90d f5bd b8fd 02be 7b7d f0bd 0f82 1cbe
000000a0: 83e8 90be 2ebf 82bd 3313 7bbd 0941 0d3d
000000b0: 15c1 1abd 0cdf f8bd 8b20 6e3c c51f fbbd
000000c0: 6e34 36bd 1aef 04be ce04 76be 7949 11be
000000d0: 56a2 fabc f38b bcbc 5805 97bb 3747 14be
000000e0: 1fa0 87bd 3957 0dbe 2702 87bd 8e14 76be
000000f0: 64df 9fb9 d2ea 56bd 183e bebd 5390 15be
00000100: 33a2 b0bb 603d ae3c 5048 64bc 14b9 a7bb
00000110: 7561 b5bd 68f9 1cbe f2e7 9dbd 097b 47bd
00000120: e9d2 97bc 36bc 89bd c1ed 1f3d bdee 2bbe
00000130: 8aab 53be 8258 0ebe d570 95bd 8a53 ccbd
00000140: 86ad cfbd 5c06 dbbc 8e31 71be 7ab0 9fbd
00000150: 0c61 7cbe d038 47bd a332 91bd 0414 bebc
00000160: 53ca 43bd 4d70 b3be 5e76 5dbd 496d 15be
00000170: 930c 6bbe fb43 66be 43d4 efbd 18fa 2b3d
00000180: bbb1 46be 3ba1 e83c 691d 92bc 8a17 dc3c
00000190: f097 fcbc 86e2 f4bd 62f3 89bd c1f5 52be
000001a0: c168 f93b db1a 3dbd 034e aebb 34e2 c9bd
000001b0: 7b20 1fbe f191 e3bd db10 b43c 4eee d1bd
000001c0: 63ac 82bc fb62 69bd 204b cebd 5ee2 65be
000001d0: a100 21bd 6430 76bc fb21 00be 6439 0fbd
000001e0: f4bb 1cbd fac5 97be 0afc 14be 3e00 40bd
000001f0: 5ebe 09be ed0c 5ebd 4ef2 2bbe 0cf2 b1bd
00000200: 1044 37bd 0005 b5be 5981 38be 8fdc 50bd
00000210: 4f90 88bd 30a7 c2be 6b4f 5cbd f963 97bd
00000220: be59 a0bd 4ffb d5bd 48aa 55be c6ce 4cbd
00000230: 04a0 91bd 3649 15be 92e2 5fbe d124 8abe
00000240: 11bb 59be c741 b5bc 4266 6cbe d854 c7bd
00000250: b6a6 a0bd 3837 39be 9c05 023d d239 16be
00000260: 3244 47be d05a d0bd c4d7 82bd 5d70 0cbe
00000270: d30d 093d e2c0 0abd dc8c afbc ec02 923b
00000280: 417f 27bd 0526 2ebe 8062 16be 28c6 7ebe
00000290: 9acf 13be e863 bebd 802b bfbd 0909 343c
000002a0: 00ed b6bd 2c5e 97bd 043e 29be 8bbd 29be
000002b0: be65 11bd 801c 96bd dc97 2fbe f164 9abd
000002c0: 6e87 02bd 7901 1bbd c7e9 08be b93d b2bc
000002d0: f992 18be 329c f4bc c6fc 46be 5ce0 0e3c
000002e0: 1880 64be a61f a63c 8754 1cbe 1ed5 1abe
000002f0: ef0f 8abe dee8 1dbe 91a6 25be 4f42 bebd
00000300: 1293 333d 7560 8bbd 6969 30be 5e3a 1abe
00000310: a860 fabd 9a17 743d cd04 a23b 700d 94bd
00000320: 06da 6abd 6a1b 313c 3755 e5ba 500d a2be
00000330: 8b72 20be 3ca3 de3c 6582 2bbe 7aa4 eebd
00000340: e694 bdbd d885 42bd 6cb1 0ebe 238a b7bb
00000350: 6178 04be 7402 a4be fca4 3cbe 23a4 aabe
00000360: 29eb 2cbd 7cd0 39be 4e96 66bd 1080 c6bd
00000370: 89f4 f0bd d698 33be f926 33be 68fe 61be
00000380: 6ca1 b63c 0320 9dbd c0da f93b fdc1 dabd
00000390: cfd5 8cbd 8ff3 30bd 326d a6bd 03b2 663d
000003a0: 3cb5 8dbd 3c58 41bd 39b4 ad3d 78fd 1dbe
000003b0: 14c4 d2bd 444f 11be e6d3 afbc 9f1e abbd
000003c0: 7f05 08be 5970 4b3d 0b5a 85bd 4a22 84be
000003d0: 6955 cdbd 4162 72bd 5d81 313a ac28 ebbd
000003e0: 7f02 42be 8562 e5bc 6493 8c3d 5707 adbd
000003f0: 29e4 88bd 4922 d5bc 231a 8fbd e96b 37bd

arith.constant2 f4 [96]
0.0042241127 0.044213753 0.12132834 0.10140171 0.3257647 -0.11300923 0.0031700553 0.1104104
-0.06307775 0.0013013419 0.030234434 -0.052848898 0.08026468 -0.14708364 0.03135771 -0.023253584
0.060736153 0.095271975 -0.023503182 0.10678658 0.10529852 -0.05054603 0.05956915 0.073834516
-0.052243777 0.07731793 0.0038285777 -0.046624687 0.023783362 0.033454876 0.105367914 0.0920598
0.05994926 -0.030372525 0.17084268 -0.014393984 -0.03261062 0.122956 0.09867291 0.029064734
0.13152976 -0.012067167 -0.17831838 0.10635199 0.06843927 0.17545633 0.08330726 0.06511572
0.028269148 0.07095114 0.10669618 0.015881645 0.04408813 -0.15544252 -0.0040053395 0.19971858
0.034009457 0.022040613 -0.02673577 0.030250473 -0.07216595 0.08146019 0.07208049 0.22663936
-0.053924326 0.06633757 -0.047642563 0.14468421 0.093541555 -0.047757894 0.0929505 0.07258637
0.07791159 0.06458844 0.26556775 0.02088178 0.10978621 0.045901414 0.124212645 0.19921987
0.11878227 -0.058572453 -0.06468692 0.23795037 -0.0035239123 -0.06413996 0.012240407 -0.008745576
0.10432648 -0.027433692 0.014584027 0.10743647 0.101916276 0.055196386 0.10889127 -0.22421725
00000000: 6d6a 8a3b 7b19 353d fe7a f83d b3ab cf3d
00000010: a1ca a63e 6271 e7bd b4c0 4f3b d91e e23d
00000020: e82e 81bd ca91 aa3a 34ae f73c 1678 58bd
00000030: cf61 a43d 189d 16be f170 003d 4d7e bebc
00000040: 79c6 783d f41d c33d bf89 c0bc ecb2 da3d
00000050: c0a6 d73d 5b09 4fbd c8fe 733d 8d36 973d
00000060: 92fd 55bd dd58 9e3d e0e8 7a3b 87f9 3ebd
00000070: 53d5 c23c fb07 093d 22cb d73d d989 bc3d
00000080: 5b8d 753d cdcf f8bc 62f1 2e3e bfd4 6bbc
00000090: b792 05bd 5bd0 fb3d 0615 ca3d 2a19 ee3c
000000a0: bdaf 063e 5eb5 45bc 1899 36be 12cf d93d
000000b0: e329 8c3d d3aa 333e ff9c aa3d 645b 853d
000000c0: b394 e73c d54e 913d 8783 da3d 391a 823c
000000d0: c195 343d 532c 1fbe 393f 83bb 0783 4c3e
000000e0: 804d 0b3d 848e b43c f904 dbbc d7cf f73c
000000f0: becb 93bd 9ad4 a63d f09e 933d 2614 683e
00000100: c1df 5cbd fedb 873d d924 43bd 1928 143e
00000110: b792 bf3d c89d 43bd d55c be3d 2aa8 943d
00000120: 1d90 9f3d f246 843d 7ff8 873e 4410 ab3c
00000130: 98d7 e03d 1f03 3c3d 3363 fe3d 4b00 4c3e
00000140: 1e44 f33d abe9 6fbd 937a 84bd 43a9 733e
00000150: 70f1 66bb d05b 83bd fd8b 483c 9b49 0fbc
00000160: 1fa9 d53d 9fbc e0bc d8f1 6e3c a707 dc3d
00000170: 7bb9 d03d 9b15 623d 6302 df3d 3599 65be

arith.constant3 f4 [96]
0.047820903 -0.02304168 0.07897212 0.092144884 -0.071679235 0.075189084 -0.03395298 -0.022710752
0.0113397 -0.016339151 0.12834029 -0.03132417 0.04751709 0.040331677 0.04106505 0.045464315
-0.010766787 0.07371251 0.06132136 0.019658469 0.051564 0.03454379 -0.05509347 0.10062723
-0.05577148 -0.22361325 0.114136696 -0.045379777 0.029648922 0.03967596 0.081977114 0.020337729
-0.034851633 -0.01336468 0.00023444832 -0.038259424 0.109783046 -0.012768326 0.0076616607 0.09686187
0.11099863 0.07220096 -0.028863411 -0.090245664 -0.041149504 -0.028557818 -0.07787452 0.14069279
-0.093661696 -0.0030477517 -0.024291826 0.13674265 0.039491285 -0.025510706 0.0608692 0.048592646
0.033239484 0.08400964 0.09949215 0.055724658 0.06573292 0.03954335 0.029863214 -0.029737663
0.04441248 0.14378197 0.058753926 -0.0014423855 -0.0015783879 -0.08085258 0.02694819 -0.029729892
-0.03429751 0.027753666 -0.14985119 0.1299559 0.066943005 0.09718744 -0.059720945 0.010414844
-0.014468291 -0.08795375 -0.050814167 0.097274855 0.14065844 0.097197905 -0.016452556 0.0794397
-0.052084774 0.032197423 0.0354536 0.14247547 -0.014382257 -0.009230748 0.008484098 -0.00025040162
00000000: dadf 433d e8c1 bcbc 23bc a13d 75b6 bc3d
00000010: 90cc 92bd bcfc 993d 4812 0bbd e60b babc
00000020: 26ca 393c afd9 85bc a36b 033e c64d 00bd
00000030: 48a1 423d d432 253d d333 283d ca38 3a3d
00000040: 2e67 30bc 96f6 963d 1b2c 7b3d cc0a a13c
00000050: c634 533d ca7d 0d3d b1a9 61bd a615 ce3d
00000060: a370 64bd dffa 64be 80c0 e93d 25e0 39bd
00000070: 4ce2 f23c 4283 223d 9ee3 a73d 4f9b a63c
00000080: 96c0 0ebd 88f7 5abc 3ed6 7539 eab5 1cbd
00000090: efd5 e03d 3e32 51bc ab0e fb3b 845f c63d
000000a0: 4053 e33d 19de 933d f672 ecbc b8d2 b8bd
000000b0: 628c 28bd 16f2 e9bc ad7c 9fbd c511 103e
000000c0: b4d1 bfbd cabc 47bb a7ff c6bc 4406 0c3e
000000d0: 9dc1 213d d4fb d0bc fb51 793d 1509 473d
000000e0: 2026 083d 3f0d ac3d 8ac2 cb3d 8a3f 643d
000000f0: fb9e 863d 35f8 213d b3a3 f43c 669c f3bc
00000100: dce9 353d 953b 133e f5a7 703d 6d0e bdba
00000110: e9e1 ceba 0a96 a5bd 73c2 dc3c 1a8c f3bc
00000120: 8c7b 0cbd a85b e33c 9772 19be 2913 053e
00000130: 6a19 893d 350a c73d f39d 74bd 06a3 2a3c
00000140: 690c 6dbc 1821 b4bd 8422 50bd 0a38 c73d
00000150: c408 103e b20f c73d 83c7 86bc 48b1 a23d
00000160: d856 55bd 72e1 033d cb37 113d 17e5 113e
00000170: 8fa3 6bbc 903c 17bc e300 0b3c 5648 83b9

arith.constant4 f4 [1, 23]
70418.65 9.866867e+06 285.40573 0.0 -0.4884779 -0.585919 11.837719 0.019986207
-0.58018965 -0.58114666 -0.017100088 -0.007694438 0.015186062 3.878761 1.5337038 0.048257075
0.0013486054 3.1927173 0.09078834 0.0036777738 3.541407 0.12780918 0.0039222287
00000000: 5389 8947 738e 164b efb3 8e43 0000 0000
00000010: c619 fabe cafe 15bf 4c67 3d41 1dba a33c
00000020: 4f87 14bf 07c6 14bf 7c15 8cbc a021 fcbb
00000030: f6ce 783c 9f3d 7840 6850 c43f 36a9 453d
00000040: b0c3 b03a 7b55 4c40 3def b93d ce06 713b
00000050: 6aa6 6240 69e0 023e 0a86 803b

arith.constant5 f4 [1, 23]
8.40486e-06 7.7213e-09 0.00028231708 1e+07 0.95676965 0.36216855 0.007911763 7.1452293
2.010076 2.018575 7.7134724 6.1491647 4.510394 0.6266612 0.17563829 1.5841728
23.645304 0.07232415 1.0297375 11.637773 0.06304111 0.6899112 11.191105
00000000: 9902 0d37 a3a6 0432 f503 9439 8096 184b
00000010: dbee 743f 286e b93e 57a0 013c b8a5 e440
00000020: 16a5 0040 5530 0140 c4d4 f640 f5c5 c440
00000030: 2655 9040 de6c 203f 86da 333e 2dc6 ca3f
00000040: 9529 bd41 af1e 943d 70ce 833f 5134 3a41
00000050: b31b 813d 059e 303f c40e 3341

arith.constant6 f4 [1, 96]
-0.13287899 0.12710062 0.09504856 0.11673796 -0.40519044 -0.25308374 -0.068429925 0.070200525
0.029620122 0.003402295 -0.099617556 -0.018219236 0.23170984 -0.18686569 -0.18567549 0.14741597
0.051884376 0.06110479 -0.0056451904 -0.052227173 0.14477186 0.06277188 0.29466873 -0.2561963
0.011602497 0.22723453 -0.0117346905 0.15961285 0.0047247126 -0.25641698 0.18751025 0.119779564
-0.19179112 -0.0035842874 0.3652061 -0.08564519 -0.052386515 0.22027753 0.47283322 -0.02153123
0.12041326 -0.00045613686 0.11127934 0.089789234 -0.20131674 -0.15510608 0.44993266 -0.11267725
0.14690152 -0.008845144 0.12312353 0.33944958 -0.11558533 0.1818214 -0.057386678 -0.24198373
-0.04375985 -0.043751735 -0.13181141 0.02218619 -0.1025294 0.07531442 -0.13523059 -0.24492122
0.0041425414 -0.10897977 -0.091508895 -0.122414134 0.27121198 0.13207431 0.1695361 0.04721188
0.23424007 0.1617035 -0.23171245 -0.1329636 0.14210069 -0.043263942 -0.108396046 -0.10387956
0.18252288 -0.13905455 0.008010123 -0.27684468 0.0008349478 0.16059914 -0.018309662 -0.008519473
0.11646905 -0.0117473025 -0.31266668 0.12264484 0.10863313 -0.059661355 0.21150723 -0.062498357
00000000: 6e11 08be aa26 023e d2a8 c23d 5014 ef3d
00000010: 1f75 cfbe 3194 81be fd24 8cbd 4bc5 8f3d
00000020: e6a5 f23c 0af9 5e3b 4a04 ccbd 8240 95bc
00000030: 5845 6d3e b859 3fbe b721 3ebe 36f4 163e
00000040: b684 543d 0449 7a3d 4afb b8bb 29ec 55bd
00000050: 133f 143e 8b8e 803d d2de 963e 292c 83be
00000060: 6618 3e3c 2bb0 683e dc42 40bc 8d71 233e
00000070: c3d1 9a3b 1649 83be b002 403e fd4e f53d
00000080: e464 44be 5de6 6abb 4bfc ba3e bf66 afbd
00000090: 3e93 56bd 6f90 613e 3217 f23e 4362 b0bc
000000a0: 3a9b f63d a725 efb9 6ce6 e33d 6be3 b73d
000000b0: fa25 4ebe 21d4 1ebe 935d e63e 54c3 e6bd
000000c0: 5a6d 163e 39eb 10bc 3028 fc3d 56cc ad3e
000000d0: 00b8 ecbd 642f 3a3e 4b0e 6bbd 95ca 77be
000000e0: 873d 33bd 0535 33bd 92f9 06be d0bf b53c
000000f0: effa d1bd 723e 9a3d e379 0abe a1cc 7abe
00000100: 28be 873b c930 dfbd 0469 bbbd 43b4 fabd
00000110: 4cdc 8a3e 7d3e 073e df9a 2d3e 3f61 413d
00000120: a1dc 6f3e 9a95 253e 0746 6dbe 9c27 08be
00000130: d882 113e 8835 31bd bffe ddbd cfbe d4bd
00000140: 47e7 3a3e 5164 0ebe e43c 033c 96be 8dbe
00000150: 66e0 5a3a 1a74 243e 25fe 95bc 4295 0bbc
00000160: 5387 ee3d c277 40bc d915 a0be 382d fb3d
00000170: 0c7b de3d 775f 74bd 5a95 583e 47fe 7fbd

tfl.pseudo_qconst i1 [96, 96]
-52 -14 -31 -37 -42 -47 -19 26
-73 -52 -7 -34 24 14 -13 -48
-23 -60 -55 -51 6 -18 -20 -94
30 127 12 11 26 -116 -99 36
-33 -27 42 20 -32 34 25 6
-17 -25 38 -23 -20 -36 -48 -27
32 21 -40 40 -35 -23 -25 18
-46 15 -33 -62 -80 -36 42 35
9 29 -20 -75 -3 -28 14 47
-51 -39 -67 -24 18 50 -30 -16
-40 -88 45 33 -36 -56 -2 20
-66 37 41 -14 3 29 8 -14
13 -12 9 -42 33 -15 -17 -106
-82 -5 -42 8 -6 -14 -43 -67
-11 -37 2 -42 36 -41 -55 5
-83 8 -23 -29 -28 16 9 -26
12 38 -23 -34 54 -19 -72 -93
13 -3 -11 -45 -53 43 -48 19
-38 -50 -51 -23 -46 13 -39 14
-15 51 28 -35 48 -59 22 14
2 96 -3 30 -37 127 6 -8
27 29 15 -47 3 -42 -6 65
-106 39 -18 -14 42 54 -7 7
-16 -34 18 -47 -1 -42 26 -26
75 -70 -58 -78 -13 -30 29 -53
20 18 7 -39 -76 -23 35 -1
45 -76 -76 -70 -91 -26 -19 41
-19 34 -67 44 15 41 66 -69
-29 42 -63 88 50 -48 13 -96
-49 31 54 32 7 59 -43 -49
5 -62 -22 71 39 -55 -4 35
31 27 38 -7 -2 -31 5 -68
00000000: ccf2 e1db d6d1 ed1a b7cc f9de 180e f3d0
00000010: e9c4 c9cd 06ee eca2 1e7f 0c0b 1a8c 9d24
00000020: dfe5 2a14 e022 1906 efe7 26e9 ecdc d0e5
00000030: 2015 d828 dde9 e712 d20f dfc2 b0dc 2a23
00000040: 091d ecb5 fde4 0e2f cdd9 bde8 1232 e2f0
00000050: d8a8 2d21 dcc8 fe14 be25 29f2 031d 08f2
00000060: 0df4 09d6 21f1 ef96 aefb d608 faf2 d5bd
00000070: f5db 02d6 24d7 c905 ad08 e9e3 e410 09e6
00000080: 0c26 e9de 36ed b8a3 0dfd f5d3 cb2b d013
00000090: dace cde9 d20d d90e f133 1cdd 30c5 160e
000000a0: 0260 fd1e db7f 06f8 1b1d 0fd1 03d6 fa41
000000b0: 9627 eef2 2a36 f907 f0de 12d1 ffd6 1ae6
000000c0: 4bba c6b2 f3e2 1dcb 1412 07d9 b4e9 23ff
000000d0: 2db4 b4ba a5e6 ed29 ed22 bd2c 0f29 42bb
000000e0: e32a c158 32d0 0da0 cf1f 3620 073b d5cf
000000f0: 05c2 ea47 27c9 fc23 1f1b 26f9 fee1 05bc

tfl.pseudo_qconst1 i1 [96, 448]
-49 -12 -72 14 -23 2 4 0
12 -9 6 -32 -23 -33 16 -1
13 -36 -39 -27 -78 -20 -12 -21
-8 -14 -15 16 5 -51 -3 -63
13 31 -6 -15 -11 6 9 3
20 20 -6 -9 -15 -26 -19 -28
-17 -11 10 -3 5 -27 20 -17
-51 -5 31 -55 -56 -44 -20 25
9 -24 -18 -6 -8 -39 15 22
-35 -95 14 0 -3 -46 8 35
0 -75 6 -21 10 -22 -55 -20
-9 -4 18 28 -14 28 -25 18
14 20 -11 -10 4 18 23 27
-17 -3 -25 -1 -28 -10 -20 -3
-16 4 -1 7 -26 12 10 -16
3 23 -39 -43 -127 19 20 -13
17 -20 20 9 11 43 -24 23
37 -34 5 -9 -3 -13 10 15
-16 13 -4 -6 27 8 -60 -32
-26 8 -60 7 20 13 0 -2
11 -14 -17 21 -1 6 33 -13
-11 9 11 14 10 16 -12 1
-18 -2 -28 13 -15 -15 -33 19
-34 -27 -23 -6 -9 -8 -6 -14
-23 12 -5 -29 15 -55 11 44
-2 -7 -16 20 3 0 -21 -32
-2 -31 17 27 -39 -5 39 -9
21 -5 -16 -44 -28 30 42 21
10 -27 -18 1 -10 -31 26 -47
-8 23 -58 4 -71 25 -12 12
-14 14 -18 28 -44 -23 15 -9
0 7 -49 29 8 29 -69 -29
00000000: cff4 b80e e902 0400 0cf7 06e0 e9df 10ff
00000010: 0ddc d9e5 b2ec f4eb f8f2 f110 05cd fdc1
00000020: 0d1f faf1 f506 0903 1414 faf7 f1e6 ede4
00000030: eff5 0afd 05e5 14ef cdfb 1fc9 c8d4 ec19
00000040: 09e8 eefa f8d9 0f16 dda1 0e00 fdd2 0823
00000050: 00b5 06eb 0aea c9ec f7fc 121c f21c e712
00000060: 0e14 f5f6 0412 171b effd e7ff e4f6 ecfd
00000070: f004 ff07 e60c 0af0 0317 d9d5 8113 14f3
00000080: 11ec 1409 0b2b e817 25de 05f7 fdf3 0a0f
00000090: f00d fcfa 1b08 c4e0 e608 c407 140d 00fe
000000a0: 0bf2 ef15 ff06 21f3 f509 0b0e 0a10 f401
000000b0: eefe e40d f1f1 df13 dee5 e9fa f7f8 faf2
000000c0: e90c fbe3 0fc9 0b2c fef9 f014 0300 ebe0
000000d0: fee1 111b d9fb 27f7 15fb f0d4 e41e 2a15
000000e0: 0ae5 ee01 f6e1 1ad1 f817 c604 b919 f40c
000000f0: f20e ee1c d4e9 0ff7 0007 cf1d 081d bbe3

tfl.pseudo_qconst2 i1 [448, 23]
-127 14 1 18 -6 11 3 1
6 1 4 24 2 -29 2 -31
19 11 -7 15 -30 38 -11 -6
-17 17 8 -110 1 2 22 0
19 66 4 -30 12 21 -127 -4
17 36 -22 -28 25 -6 -20 22
6 -20 -3 -9 1 13 40 37
57 -39 2 -103 -13 50 -35 63
25 -7 -78 -127 11 -90 -62 18
104 -28 -65 74 -89 -6 15 -60
-83 28 -34 120 84 -127 32 -60
-13 -99 -20 -15 -3 15 41 -26
-56 -41 5 17 -15 17 -6 -28
1 -55 -17 -62 6 11 -29 -10
-61 -127 -21 -3 -64 -15 -17 -11
19 19 3 -45 -28 5 16 -9
-43 29 -127 35 -3 14 -3 -58
92 17 -69 28 56 -45 26 -25
-2 3 -9 -4 30 3 -39 22
8 -16 -5 33 -42 34 -127 91
49 -10 7 9 -9 -36 26 -127
17 40 -19 -14 2 -3 45 16
24 26 -22 -13 14 39 24 -22
-4 20 44 -10 -1 -30 -127 4
-20 6 5 28 -10 21 -21 -6
-1 -14 24 23 -50 38 -4 30
-15 8 -15 -44 35 45 4 94
-47 -31 38 20 90 -73 70 17
126 42 -10 127 -67 -92 14 4
-12 8 -4 -127 1 7 18 0
13 -19 17 -6 -12 -19 -1 -95
55 -30 57 12 40 12 -32 -36
00000000: 810e 0112 fa0b 0301 0601 0418 02e3 02e1
00000010: 130b f90f e226 f5fa ef11 0892 0102 1600
00000020: 1342 04e2 0c15 81fc 1124 eae4 19fa ec16
00000030: 06ec fdf7 010d 2825 39d9 0299 f332 dd3f
00000040: 19f9 b281 0ba6 c212 68e4 bf4a a7fa 0fc4
00000050: ad1c de78 5481 20c4 f39d ecf1 fd0f 29e6
00000060: c8d7 0511 f111 fae4 01c9 efc2 060b e3f6
00000070: c381 ebfd c0f1 eff5 1313 03d3 e405 10f7
00000080: d51d 8123 fd0e fdc6 5c11 bb1c 38d3 1ae7
00000090: fe03 f7fc 1e03 d916 08f0 fb21 d622 815b
000000a0: 31f6 0709 f7dc 1a81 1128 edf2 02fd 2d10
000000b0: 181a eaf3 0e27 18ea fc14 2cf6 ffe2 8104
000000c0: ec06 051c f615 ebfa fff2 1817 ce26 fc1e
000000d0: f108 f1d4 232d 045e d1e1 2614 5ab7 4611
000000e0: 7e2a f67f bda4 0e04 f408 fc81 0107 1200
000000f0: 0ded 11fa f4ed ffa1 37e2 390c 280c e0dc
